data.pth (torch, 6719 bytes, 6 tensors)

l1.weight f4 [8, 88]
0	0x3dca1abd	0.09868381
1	0xbe6d1f8b	-0.23156564
2	0x3d8405e9	0.0644644
3	0x3e50f63a	0.20406428
4	0x3f32d0d8	0.6984992
5	0xbe583110	-0.21112466
6	0xbe8251f6	-0.25453156
7	0xbe2fd129	-0.17169632
8	0xbe3c44e6	-0.18385658
9	0x3ef432a6	0.47694892
10	0x3dde8968	0.10866052
11	0xbefe7d9a	-0.497052
12	0xbe17434d	-0.14771767
13	0x3f1b2e16	0.60617197
14	0x3db790e9	0.08963186
15	0x3d2686b8	0.04065582
16	0x3e8e2c16	0.2776801
17	0x3b834825	0.004006403
18	0x3dde71da	0.10861559
19	0xbe4adf33	-0.19811706
20	0x3e9f267d	0.31084052
21	0xbe042663	-0.12905268
22	0x3e134d28	0.14384902
23	0x3f3ca3cd	0.7368744
24	0xbdab5c08	-0.08367163
25	0xbcf52ffb	-0.029930105
26	0xbe9fe623	-0.31230268
27	0xbe766c81	-0.24064828
28	0xbd15afea	-0.036544718
29	0xbe1a12d4	-0.15046245
30	0xbc847329	-0.016168194
31	0xbe166132	-0.14685515
32	0x3eac1b01	0.33614352
33	0x3c89de2b	0.01682957
34	0xbe99de0f	-0.3005223
35	0xbe65dcb8	-0.22447479
36	0x3e5749bc	0.21024221
37	0xbd8332ee	-0.064061984
38	0x3f5a7ecd	0.8534973
39	0x3ee778cc	0.45209348
40	0xbd8d2e74	-0.06893626
41	0x3d95bab3	0.07311001
42	0x3f1796b2	0.5921432
43	0x3e0a6dce	0.1351845
44	0xbbd839b5	-0.006598676
45	0x3f0e6ad6	0.5563177
46	0xbdee1c4b	-0.1162649
47	0xbe18f9b7	-0.14939009
48	0x3e42d94c	0.19028205
49	0xbe8a9015	-0.2706305
50	0xbe24dbd0	-0.16099477
51	0x3f127225	0.5720542
52	0xbedab07f	-0.4271278
53	0x3ef8145c	0.48453033
54	0xbe8a8839	-0.27057055
55	0x3d03b400	0.032154083
56	0xbd59ab50	-0.053141892
57	0x3e924f39	0.28576067
58	0x3edc1915	0.42987886
59	0x3ecf39f6	0.40473908
60	0xbd41c688	-0.047308475
61	0x3f26b253	0.6511585
62	0x3de01ee9	0.10943396
63	0xbeaf6680	-0.3425789
64	0x3e94694b	0.28986582
65	0x3db22220	0.08697915
66	0x3ece56f9	0.4030073
67	0x3c1b7939	0.009489351
68	0xbe924160	-0.28565502
69	0xbda02d0b	-0.07821091
70	0x3db6e3dd	0.0893018
71	0xbe7a329b	-0.24433367
72	0xbed3bc63	-0.41354665
73	0x3ec6f5d5	0.3885943
74	0x3e51b156	0.20477805
75	0xbe1f7bf1	-0.15574624
76	0xbea927ee	-0.33038276
77	0xbdb5f903	-0.08885386
78	0xbe2d7b5e	-0.16941592
79	0x3e8a9a78	0.27070975
80	0x3cecb5c7	0.028895272
81	0x3e8dea04	0.27717602
82	0xbd891052	-0.06692566
83	0xbdf52097	-0.11969107
84	0x3d1d356e	0.038381033
85	0xbe34d72a	-0.17660204
86	0xbea3c67c	-0.3198737
87	0x3ea4e408	0.32205224
88	0xbea4e53e	-0.32206148
89	0xbf1ea4bc	-0.61970115
90	0x3f0f2c8a	0.55927336
91	0x3e77a916	0.24185595
92	0x3d1115ce	0.035421185
93	0x3e93f4bc	0.28897655
94	0x3ea65dad	0.32493344
95	0x3f5fb1e2	0.873808
96	0x3e6b5c2a	0.22984377
97	0xbe8b291c	-0.271798
98	0x3df10698	0.11768836
99	0xbe9770d9	-0.29578283
100	0x3e156708	0.14590085
101	0x3e88651f	0.2663965
102	0xbe9d4478	-0.307163
103	0x3d9fcfc9	0.07803304
104	0xbce89195	-0.028389731
105	0x3e849355	0.25893655
106	0xbeb13113	-0.34607753
107	0x3e586b90	0.21134782
108	0xbdce7536	-0.1008095
109	0x3ea0392f	0.31293628
110	0x3eca0b0a	0.39461547
111	0x3ea7b66e	0.3275637
112	0x3df83e01	0.12121201
113	0xbe5b24c1	-0.21400739
114	0x3eee919d	0.4659547
115	0x3e90d1de	0.28285116
116	0xbd1a6285	-0.03769161
117	0x3e3fd9a4	0.18735367
118	0x3e5b905e	0.2144179
119	0x3cb4266d	0.02199098
120	0xbe7eaff3	-0.24871807
121	0xbedfd2e1	-0.43715575
122	0x3f00e186	0.5034412
123	0x3e3e24ca	0.18568721
124	0xbe3c3b75	-0.18382056
125	0xbdcf12ee	-0.101110324
126	0x3e90a16d	0.28248158
127	0xbedc19e6	-0.4298851
128	0x3df3b50f	0.118997686
129	0xbd61d356	-0.055133186
130	0xbe975866	-0.2955963
131	0x3e8b8d3d	0.27256194
132	0x3e57615c	0.21033233
133	0x3db7e5ef	0.08979403
134	0x3eb615dc	0.35563552
135	0x3e85f494	0.2616316
136	0x3deef3fa	0.116676286
137	0x3f43a059	0.76416546
138	0x3e882ee0	0.26598263
139	0xbe142112	-0.1446574
140	0xbe2076a2	-0.15670255
141	0xbe8197df	-0.2531118
142	0xbe8dd2bf	-0.2769985
143	0x3f0fec4e	0.5621995
144	0x3cf33755	0.02968947
145	0xbe64d79a	-0.2234787
146	0xbe86a66f	-0.26298854
147	0x3deecc6b	0.116600834
148	0x3e7bb522	0.24580815
149	0xbd7c53a9	-0.061603222
150	0xbdd30936	-0.10304491
151	0x3f30f3f4	0.6912224
152	0xbebd4381	-0.36965564
153	0x3ec51a77	0.38496754
154	0xbe92f645	-0.28703514
155	0x3e35a400	0.17738342
156	0x3f1a571f	0.60289186
157	0xbef02a5c	-0.46907318
158	0xbef4c7c7	-0.47808668
159	0x3e949832	0.29022366
160	0x3f147567	0.5799164
161	0xbcfb1de5	-0.030653903
162	0x3ec37397	0.38174126
163	0xbe1e7b6d	-0.1547677
164	0x3ece84a8	0.40335584
165	0x3e851509	0.2599261
166	0x3ea26d52	0.3172403
167	0xbe4435a3	-0.19161086
168	0x3e032512	0.1280711
169	0xbd022dff	-0.031782147
170	0x3e42eac6	0.19034871
171	0x3d8f6a93	0.07002749
172	0x3e1305d5	0.14357693
173	0x3e64a5a4	0.22328812
174	0xbe5f9b75	-0.21836646
175	0xbe4080a8	-0.18799078
176	0x3f06f363	0.5271513
177	0x3f479b92	0.77971756
178	0xbe1a8736	-0.15090641
179	0x3f020de4	0.50802445
180	0xbf234ac5	-0.63785964
181	0xbe33b930	-0.17551112
182	0x3e90b815	0.28265443
183	0xbf12501d	-0.57153493
184	0xbd02a9c0	-0.031900167
185	0xbd575490	-0.05257088
186	0x3d1f6f44	0.03892447
187	0x3f1b3064	0.60620713
188	0x3e9d4c19	0.3072212
189	0x3e1c8552	0.15285233
190	0x3f27258c	0.65291667
191	0x3e256e31	0.16155316
192	0xbe3b9bba	-0.18321124
193	0x3ebbf3ec	0.36709535
194	0xbd8e046e	-0.06934439
195	0xbea983a6	-0.33108252
196	0x3e5e78cf	0.21725772
197	0x3ec62db9	0.3870676
198	0x3d8b22f4	0.06793776
199	0x3ec6be58	0.38817096
200	0xbc3ab9d8	-0.011396848
201	0x3e8b878e	0.27251858
202	0x3d0a34f7	0.033741917
203	0x3f19b140	0.6003609
204	0xbd99f5a4	-0.07517555
205	0xbe216b77	-0.15763651
206	0xbd0dcd98	-0.034619898
207	0xbdb93cfe	-0.090448365
208	0x3d6ac838	0.05731985
209	0x3ef8dd5b	0.4860638
210	0x3cd4f6a6	0.025996517
211	0xbd256f9d	-0.040389646
212	0x3e25322b	0.16132419
213	0x3e0d7387	0.13813601
214	0x3ea6f129	0.32605866
215	0xbeb4e62b	-0.35331854
216	0x3d9d8c4a	0.07692774
217	0x3e841b15	0.25801912
218	0xbe91b641	-0.2845936
219	0xbe0a4241	-0.13501836
220	0x3e1aba2f	0.15110086
221	0x3e5bbfbf	0.21459864
222	0xbe1c912b	-0.15289752
223	0x3dcaa38e	0.09894477
224	0xbe424e24	-0.18975121
225	0xbe962723	-0.29326734
226	0xbb232720	-0.0024895146
227	0x3dd4036d	0.10352216
228	0x3ed9a93d	0.4251193
229	0x3e5394b7	0.20662199
230	0x3ef0544d	0.46939316
231	0xbe98030a	-0.2968982
232	0x3e101bc7	0.14073096
233	0x3e84ae50	0.2591424
234	0x3d93811c	0.0720236
235	0xbeb3752b	-0.3505033
236	0x3e56fe8e	0.20995542
237	0x3ebe351c	0.37149894
238	0x3d6fcb15	0.058543283
239	0xbeb08933	-0.34479675
240	0x3e67616e	0.2259576
241	0x3e5fe78d	0.21865673
242	0x3d96892d	0.07350383
243	0x3e3099bd	0.17246147
244	0x3f74e38c	0.9565971
245	0x3eb23b05	0.34810653
246	0x3f0c1e6b	0.54733914
247	0xbdd6aac3	-0.10481789
248	0x3f4a3806	0.78991735
249	0x3eaa34a6	0.33243293
250	0xbdcf0fab	-0.1011041
251	0x3e8577cf	0.2606797
252	0xbe835249	-0.25648716
253	0x3e56ef8a	0.20989814
254	0x3ea2548b	0.31705126
255	0x3e99152b	0.29898962

l1.bias f4 [8]
0	0x3f1ce003	0.61279315
1	0x3f39bde4	0.72555375
2	0x3f234c95	0.6378873
3	0x3f3ff1dc	0.74978423
4	0x3f65683f	0.8961219
5	0x3f1b3b9d	0.6063784
6	0x3f12f64a	0.5740706
7	0x3f0b67fb	0.54455537

l2.weight f4 [8, 8]
0	0x3fa2c3a0	1.271595
1	0xbf89d711	-1.0768758
2	0x3e4a9257	0.19782387
3	0xbce2ac09	-0.027669923
4	0x3f738bed	0.95135385
5	0x3f8355e5	1.0260588
6	0xbd875ca4	-0.06609467
7	0x3f90db6c	1.1316962
8	0xbe228246	-0.15870008
9	0x3f2607a2	0.64855397
10	0xbf2fff14	-0.68748593
11	0x3f3dbe7c	0.7411878
12	0xbe99cad5	-0.3003756
13	0x3e172f5e	0.14764163
14	0x3fa67bec	1.3006568
15	0x3f8772df	1.0581931
16	0x3f67c62f	0.9053678
17	0xbf832e40	-1.0248489
18	0x3da38056	0.079834625
19	0x3d57bd2c	0.052670643
20	0x3f05dd49	0.5229078
21	0x3f3aa068	0.7290101
22	0x3f3df18d	0.741967
23	0xbef20d5b	-0.47275814
24	0xbf2ce53e	-0.67537296
25	0xbd469f4a	-0.048491754
26	0x3fa5a6e0	1.2941551
27	0x3f714d92	0.9425899
28	0xbdf964ba	-0.12177415
29	0x3f868b22	1.051121
30	0xbf454083	-0.7705156
31	0x3e1b04fe	0.15138623
32	0x3f87326d	1.0562264
33	0x3f9f3d7a	1.2440636
34	0xbf186bc5	-0.59539443
35	0x3f6e6128	0.93117
36	0x3f58595b	0.84511346
37	0xbe717eb9	-0.23583497
38	0xbd9a410d	-0.07531939
39	0xbf807a74	-1.003737
40	0x3e3c3649	0.18380083
41	0x3f9b01d9	1.2109939
42	0x3ed78e1d	0.4210061
43	0xbefb53b1	-0.4908729
44	0x3f92e6c0	1.1476669
45	0xbf402e8f	-0.7507104
46	0x3e8ba06b	0.27270827
47	0x3efd08f8	0.49420905
48	0xbeabe718	-0.33574748
49	0x3f3e2af4	0.7428429
50	0x3e836706	0.25664538
51	0x3f6b6b62	0.9196073
52	0xbf93d6ea	-1.1549962
53	0x3f63d733	0.8900024
54	0x3f85dabf	1.0457381
55	0x3f8f9974	1.1218705
56	0xbdb60061	-0.08886791
57	0x3e14e70f	0.14541267
58	0xbf52a3e2	-0.82281315
59	0x3f96931e	1.1763647
60	0x3f6a1a3d	0.91446286
61	0x3ef8e1d9	0.48609808
62	0xbe5cf928	-0.2157942
63	0xbf8804a4	-1.0626416

l2.bias f4 [8]
0	0x3dd3d5ac	0.10343489
1	0xbc8eee13	-0.017447507
2	0x3e9df271	0.3084903
3	0x3eb7bc73	0.35885963
4	0x3e8811a0	0.26575947
5	0x3f028a61	0.509924
6	0x3eddb575	0.43302503
7	0x3f40a337	0.75249046

l3.weight f4 [10, 8]
0	0x3d5cbb38	0.053889483
1	0x3e77ab2d	0.24186392
2	0x3eef7d81	0.4677544
3	0xbf5544d3	-0.8330814
4	0x3e9f57f3	0.31121787
5	0xbeb6de6c	-0.3571657
6	0xbeca80df	-0.39551446
7	0x3e86564a	0.26237708
8	0xbf908cf1	-1.1293012
9	0xbf3ea3e4	-0.7446883
10	0xbf9a960f	-1.2077044
11	0xbf1d08dc	-0.61341643
12	0x3f46b61b	0.7762162
13	0x3f8c4710	1.0959187
14	0xbf88e1c9	-1.0693904
15	0x3f189f0b	0.5961768
16	0xbefad2b1	-0.4898887
17	0xbf465b3d	-0.7748297
18	0x3e1f183f	0.15536593
19	0x3f653825	0.89538795
20	0xbf239792	-0.6390315
21	0xbfee1ffd	-1.8603512
22	0x3ecf1e0a	0.40452605
23	0x3ef8c12d	0.4858488
24	0xbf814048	-1.0097742
25	0x3ec382fc	0.3818587
26	0xbf64571a	-0.89195406
27	0xbfa72ad2	-1.3059943
28	0xbf9474b8	-1.159812
29	0x3f291907	0.66053814
30	0x3f2987f9	0.662231
31	0xbf527ba2	-0.822199
32	0x3f180e2c	0.59396625
33	0x3d915122	0.07095553
34	0x3e9e9c1f	0.30978486
35	0xbf4a117f	-0.78932947
36	0xbf31e656	-0.6949209
37	0xbfc052a8	-1.5025225
38	0x3f08a7a4	0.533808
39	0xbf5d565f	-0.86459917
40	0x3ed1e18c	0.4099239
41	0xbf58d839	-0.8470493
42	0x3bf490a6	0.0074635325
43	0x3d909167	0.07058983
44	0x3e949ffb	0.29028305
45	0xbfb5482e	-1.4162652
46	0xbef07ee5	-0.46971813
47	0x3eca9dd1	0.3957353
48	0xbfaa1657	-1.3288068
49	0x3ee25c24	0.44210923
50	0xbf99c167	-1.2012147
51	0xbe38279e	-0.17983863
52	0x3ea219a3	0.31660184
53	0xbeb6e057	-0.35718033
54	0x3dd32198	0.10309142
55	0x3f0e2b71	0.55535036
56	0x3ee88f1d	0.45421687
57	0xbf8c9207	-1.0982064
58	0x3ebe9d96	0.37229604
59	0xbeee5f1a	-0.46556932
60	0x3f124790	0.57140446
61	0x3e339262	0.1753631
62	0xbf9ae649	-1.2101527
63	0xbfa5fa37	-1.2966985
64	0xbee3aa99	-0.44466093
65	0x3ed716c4	0.42009556
66	0xbf5351db	-0.82546777
67	0x3f0f095e	0.5587367
68	0xbeb82f49	-0.35973576
69	0xbf35bda2	-0.7099248
70	0x3ee38d1d	0.44443598
71	0xbf90399e	-1.1267583
72	0x3f5c2e45	0.860081
73	0xbf847a72	-1.0349867
74	0x3df90ef4	0.12161055
75	0x3f2bfe55	0.67184955
76	0xbfb957e7	-1.4479951
77	0x3e4c5bf9	0.1995696
78	0xbf183cc4	-0.5946772
79	0xbefa6c05	-0.48910537

l3.bias f4 [10]
0	0xbde7d240	-0.11319399
1	0x3eda0b12	0.4258657
2	0xbd8dc47f	-0.06922244
3	0x3e81940d	0.25308266
4	0xbe84c977	-0.25934955
5	0xbf3ffb15	-0.74992496
6	0x3d4a8d01	0.049450878
7	0x3d9eacbd	0.07747791
8	0xbe804699	-0.25053862
9	0x3db2ed6c	0.08736691
